delegate/python/test/test_data/mock_model.tflite (tflite, 37944 bytes, 4 tensors)

conv2d/weights_quant/FakeQuantWithMinMaxVars u1 [1, 3, 3, 32] scale=0.0017593879 zero_point=115
0	0x51	-0.059819188
1	0x2e	-0.12139776
2	0x57	-0.049262863
3	0x74	0.0017593879
4	0xd5	0.17242001
5	0xaf	0.105563276
6	0x17	-0.16186368
7	0xdd	0.18649511
8	0xae	0.10380389
9	0x8b	0.04222531
10	0x6c	-0.012315716
11	0x44	-0.08269123
12	0xa4	0.086210005
13	0x33	-0.112600826
14	0xa2	0.08269123
15	0xe6	0.2023296
16	0xb0	0.10732266
17	0xc0	0.13547286
18	0x6c	-0.012315716
19	0xc9	0.15130736
20	0xca	0.15306675
21	0x77	0.0070375516
22	0xc4	0.14251041
23	0x3a	-0.10028511
24	0x15	-0.16538246
25	0xb5	0.1161196
26	0xbc	0.12843531
27	0x9f	0.07741307
28	0xda	0.18121696
29	0x77	0.0070375516
30	0xb4	0.11436021
31	0x39	-0.1020445
32	0x4b	-0.07037552
33	0x13	-0.16890123
34	0x82	0.026390819
35	0x33	-0.112600826
36	0x9f	0.07741307
37	0xd2	0.16714185
38	0xbc	0.12843531
39	0xb0	0.10732266
40	0x99	0.06685674
41	0x71	-0.0035187758
42	0x46	-0.079172455
43	0x9d	0.07389429
44	0xea	0.20936716
45	0x41	-0.08796939
46	0x56	-0.05102225
47	0xb1	0.10908205
48	0x43	-0.08445062
49	0xbe	0.13195409
50	0xaa	0.09676634
51	0xcd	0.15834491
52	0x86	0.03342837
53	0xec	0.21288593
54	0xd8	0.17769818
55	0xab	0.098525725
56	0x8d	0.045744084
57	0x21	-0.14426981
58	0x77	0.0070375516
59	0x62	-0.029909594
60	0xf6	0.23047982
61	0x6d	-0.010556327
62	0xa9	0.09500695
63	0x99	0.06685674
64	0x10	-0.1741794
65	0x0b	-0.18297634
66	0x82	0.026390819
67	0x6e	-0.00879694
68	0x1e	-0.14954796
69	0x79	0.010556327
70	0x6d	-0.010556327
71	0x9a	0.06861613
72	0xea	0.20936716
73	0xc0	0.13547286
74	0x69	-0.01759388
75	0x6c	-0.012315716
76	0x5c	-0.04046592
77	0x4a	-0.072134905
78	0x36	-0.10732266
79	0x22	-0.14251041
80	0xc0	0.13547286
81	0xd5	0.17242001
82	0xb2	0.11084144
83	0x8c	0.043984696
84	0xd6	0.1741794
85	0xc6	0.14602919
86	0xe4	0.19881083
87	0x86	0.03342837
88	0xb2	0.11084144
89	0x0b	-0.18297634
90	0x2b	-0.12667593
91	0x75	0.0035187758
92	0xf9	0.23575798
93	0xb8	0.12139776
94	0xd0	0.16362308
95	0x7a	0.012315716
96	0x84	0.029909594
97	0xb0	0.10732266
98	0x29	-0.13019471
99	0xcc	0.15658553
100	0xd5	0.17242001
101	0x3c	-0.09676634
102	0x24	-0.13899164
103	0xec	0.21288593
104	0x98	0.065097354
105	0x41	-0.08796939
106	0x4b	-0.07037552
107	0xa3	0.08445062
108	0xf0	0.21992348
109	0x08	-0.1882545
110	0xed	0.21464533
111	0x6f	-0.0070375516
112	0x99	0.06685674
113	0xc2	0.13899164
114	0x5b	-0.04222531
115	0xd0	0.16362308
116	0x34	-0.11084144
117	0x5f	-0.03518776
118	0x3d	-0.09500695
119	0xbb	0.12667593
120	0x0d	-0.17945756
121	0x8b	0.04222531
122	0xc7	0.14778858
123	0x5a	-0.043984696
124	0xbd	0.13019471
125	0x3c	-0.09676634
126	0x32	-0.11436021
127	0x87	0.03518776
128	0xaf	0.105563276
129	0xc2	0.13899164
130	0x7e	0.019353267
131	0x76	0.0052781636
132	0x85	0.031668983
133	0xc2	0.13899164
134	0xc6	0.14602919
135	0x64	-0.026390819
136	0x76	0.0052781636
137	0x11	-0.17242001
138	0x1f	-0.14778858
139	0xc3	0.14075103
140	0x94	0.0580598
141	0x99	0.06685674
142	0x59	-0.045744084
143	0x4c	-0.06861613
144	0x7e	0.019353267
145	0x58	-0.047503475
146	0xc7	0.14778858
147	0x67	-0.021112654
148	0x6c	-0.012315716
149	0xa5	0.08796939
150	0x48	-0.07565368
151	0x82	0.026390819
152	0x4f	-0.06333797
153	0x98	0.065097354
154	0x5f	-0.03518776
155	0xec	0.21288593
156	0x82	0.026390819
157	0x6c	-0.012315716
158	0xa9	0.09500695
159	0x9a	0.06861613
160	0x56	-0.05102225
161	0x88	0.036947146
162	0xe5	0.20057023
163	0xe8	0.20584838
164	0x23	-0.14075103
165	0x41	-0.08796939
166	0x63	-0.028150206
167	0xd1	0.16538246
168	0xab	0.098525725
169	0x23	-0.14075103
170	0x55	-0.052781638
171	0xc4	0.14251041
172	0xb7	0.119638376
173	0x9a	0.06861613
174	0x2c	-0.12491654
175	0x56	-0.05102225
176	0x8a	0.04046592
177	0x63	-0.028150206
178	0x3f	-0.09148817
179	0x67	-0.021112654
180	0xb7	0.119638376
181	0xb5	0.1161196
182	0x81	0.024631431
183	0xc9	0.15130736
184	0xc0	0.13547286
185	0x69	-0.01759388
186	0x21	-0.14426981
187	0xd7	0.17593879
188	0x57	-0.049262863
189	0x3e	-0.093247555
190	0x91	0.052781638
191	0xd1	0.16538246
192	0x8c	0.043984696
193	0x84	0.029909594
194	0x37	-0.105563276
195	0x62	-0.029909594
196	0x66	-0.022872042
197	0x0f	-0.17593879
198	0x27	-0.13371348
199	0x8e	0.047503475
200	0x12	-0.17066063
201	0xac	0.10028511
202	0x68	-0.019353267
203	0xa7	0.09148817
204	0x63	-0.028150206
205	0x27	-0.13371348
206	0x89	0.038706534
207	0xc4	0.14251041
208	0xd2	0.16714185
209	0xd7	0.17593879
210	0xe6	0.2023296
211	0x68	-0.019353267
212	0x52	-0.0580598
213	0xc9	0.15130736
214	0x3c	-0.09676634
215	0x1f	-0.14778858
216	0x21	-0.14426981
217	0xe1	0.19353268
218	0xb2	0.11084144
219	0x20	-0.14602919
220	0x46	-0.079172455
221	0x4a	-0.072134905
222	0x19	-0.15834491
223	0xc2	0.13899164
224	0xff	0.2463143
225	0xbc	0.12843531
226	0xdc	0.18473573
227	0x43	-0.08445062
228	0x67	-0.021112654
229	0x0b	-0.18297634
230	0x60	-0.03342837
231	0x59	-0.045744084
232	0x87	0.03518776
233	0xaf	0.105563276
234	0xcc	0.15658553
235	0xe3	0.19705145
236	0x1d	-0.15130736
237	0xbc	0.12843531
238	0x65	-0.024631431
239	0xc2	0.13899164
240	0xb4	0.11436021
241	0x1e	-0.14954796
242	0xd9	0.17945756
243	0x74	0.0017593879
244	0x3c	-0.09676634
245	0x53	-0.056300413
246	0x17	-0.16186368
247	0xd1	0.16538246
248	0xbb	0.12667593
249	0x67	-0.021112654
250	0x50	-0.061578576
251	0x7a	0.012315716
252	0x36	-0.10732266
253	0x68	-0.019353267
254	0x3d	-0.09500695
255	0x65	-0.024631431

conv2d_1/weights_quant/FakeQuantWithMinMaxVars u1 [32, 3, 3, 32] scale=0.001916276 zero_point=125
0	0x5a	-0.067069665
1	0x5d	-0.061320834
2	0xc4	0.1360556
3	0x99	0.05365573
4	0x62	-0.051739454
5	0x44	-0.10922773
6	0x86	0.017246485
7	0x72	-0.021079037
8	0x62	-0.051739454
9	0x50	-0.086232424
10	0x99	0.05365573
11	0x93	0.042158075
12	0x8c	0.02874414
13	0x63	-0.049823176
14	0xb5	0.10731146
15	0xac	0.09006497
16	0xb3	0.10347891
17	0x52	-0.08239987
18	0xa9	0.08431615
19	0xac	0.09006497
20	0x77	-0.011497656
21	0x80	0.005748828
22	0x50	-0.086232424
23	0x76	-0.013413932
24	0xa1	0.06898594
25	0x97	0.049823176
26	0x99	0.05365573
27	0x7e	0.001916276
28	0x91	0.038325522
29	0x51	-0.08431615
30	0x6b	-0.03449297
31	0x75	-0.015330208
32	0x69	-0.038325522
33	0x50	-0.086232424
34	0x67	-0.042158075
35	0xae	0.09389753
36	0x97	0.049823176
37	0x47	-0.10347891
38	0xb6	0.10922773
39	0x9e	0.06323711
40	0x6d	-0.030660417
41	0x59	-0.06898594
42	0x93	0.042158075
43	0x73	-0.019162761
44	0x63	-0.049823176
45	0xaf	0.0958138
46	0x8c	0.02874414
47	0x7a	-0.005748828
48	0x4b	-0.0958138
49	0x5e	-0.05940456
50	0x60	-0.055572007
51	0x7b	-0.003832552
52	0x5c	-0.06323711
53	0x63	-0.049823176
54	0x27	-0.16479973
55	0x52	-0.08239987
56	0xba	0.11689284
57	0x5e	-0.05940456
58	0xb9	0.11497656
59	0x48	-0.101562634
60	0x66	-0.04407435
61	0xa9	0.08431615
62	0x7d	0.0
63	0x8e	0.03257669
64	0xa1	0.06898594
65	0x98	0.051739454
66	0xae	0.09389753
67	0x61	-0.05365573
68	0x85	0.015330208
69	0x6f	-0.026827864
70	0x71	-0.022995312
71	0x86	0.017246485
72	0x63	-0.049823176
73	0x64	-0.0479069
74	0x73	-0.019162761
75	0x7d	0.0
76	0xb2	0.101562634
77	0x9c	0.05940456
78	0xd5	0.1686323
79	0x65	-0.045990624
80	0x76	-0.013413932
81	0x98	0.051739454
82	0x5c	-0.06323711
83	0x55	-0.076651044
84	0x56	-0.07473477
85	0x56	-0.07473477
86	0x6a	-0.036409244
87	0x8a	0.024911588
88	0x5e	-0.05940456
89	0xa8	0.08239987
90	0xcb	0.14946954
91	0x61	-0.05365573
92	0x44	-0.10922773
93	0x63	-0.049823176
94	0x31	-0.14563698
95	0x50	-0.086232424
96	0x46	-0.10539518
97	0x9f	0.06515338
98	0x62	-0.051739454
99	0x9f	0.06515338
100	0x92	0.040241797
101	0x5c	-0.06323711
102	0x7e	0.001916276
103	0x61	-0.05365573
104	0x91	0.038325522
105	0x8d	0.030660417
106	0x58	-0.07090221
107	0x5f	-0.05748828
108	0x58	-0.07090221
109	0xad	0.09198125
110	0xaf	0.0958138
111	0x93	0.042158075
112	0x84	0.013413932
113	0xb4	0.10539518
114	0x74	-0.017246485
115	0x5e	-0.05940456
116	0x5e	-0.05940456
117	0x5c	-0.06323711
118	0x1b	-0.18779506
119	0xac	0.09006497
120	0x8e	0.03257669
121	0x5b	-0.06515338
122	0xc5	0.13797188
123	0xb2	0.101562634
124	0xb1	0.09964635
125	0x76	-0.013413932
126	0x72	-0.021079037
127	0xb4	0.10539518
128	0x59	-0.06898594
129	0x99	0.05365573
130	0xa8	0.08239987
131	0x63	-0.049823176
132	0x90	0.036409244
133	0x57	-0.07281849
134	0x9d	0.061320834
135	0x9d	0.061320834
136	0x61	-0.05365573
137	0x74	-0.017246485
138	0x69	-0.038325522
139	0x85	0.015330208
140	0x83	0.011497656
141	0xab	0.0881487
142	0x92	0.040241797
143	0x54	-0.07856732
144	0xa1	0.06898594
145	0x52	-0.08239987
146	0x5b	-0.06515338
147	0x8e	0.03257669
148	0x95	0.045990624
149	0x57	-0.07281849
150	0x37	-0.13413933
151	0x5a	-0.067069665
152	0x92	0.040241797
153	0xbc	0.12072539
154	0x98	0.051739454
155	0x7c	-0.001916276
156	0x6d	-0.030660417
157	0x72	-0.021079037
158	0x9b	0.05748828
159	0x4d	-0.09198125
160	0x81	0.007665104
161	0x87	0.019162761
162	0x46	-0.10539518
163	0x58	-0.07090221
164	0x67	-0.042158075
165	0x4d	-0.09198125
166	0xc7	0.14180443
167	0x5c	-0.06323711
168	0x57	-0.07281849
169	0x6f	-0.026827864
170	0xab	0.0881487
171	0x87	0.019162761
172	0x8e	0.03257669
173	0xa2	0.07090221
174	0x91	0.038325522
175	0xa9	0.08431615
176	0x6d	-0.030660417
177	0x70	-0.024911588
178	0xb0	0.09773008
179	0x7b	-0.003832552
180	0x3c	-0.12455794
181	0x4f	-0.0881487
182	0x81	0.007665104
183	0x69	-0.038325522
184	0x76	-0.013413932
185	0x5f	-0.05748828
186	0xa3	0.07281849
187	0xae	0.09389753
188	0x6c	-0.03257669
189	0x82	0.0095813805
190	0x97	0.049823176
191	0x93	0.042158075
192	0x9a	0.055572007
193	0x62	-0.051739454
194	0x7d	0.0
195	0x70	-0.024911588
196	0x58	-0.07090221
197	0x89	0.022995312
198	0x93	0.042158075
199	0x48	-0.101562634
200	0x6e	-0.02874414
201	0x71	-0.022995312
202	0x7f	0.003832552
203	0x7b	-0.003832552
204	0x9a	0.055572007
205	0xb8	0.11306029
206	0xae	0.09389753
207	0xb0	0.09773008
208	0x74	-0.017246485
209	0x49	-0.09964635
210	0x78	-0.0095813805
211	0x98	0.051739454
212	0x80	0.005748828
213	0x9d	0.061320834
214	0x81	0.007665104
215	0x9d	0.061320834
216	0x94	0.04407435
217	0x4c	-0.09389753
218	0x7d	0.0
219	0xac	0.09006497
220	0x6d	-0.030660417
221	0x62	-0.051739454
222	0xa5	0.076651044
223	0x91	0.038325522
224	0xc0	0.12839049
225	0x73	-0.019162761
226	0xc7	0.14180443
227	0xb8	0.11306029
228	0xa7	0.08048359
229	0x64	-0.0479069
230	0xe0	0.18971133
231	0xac	0.09006497
232	0x9b	0.05748828
233	0x68	-0.040241797
234	0x92	0.040241797
235	0x94	0.04407435
236	0x7a	-0.005748828
237	0x7d	0.0
238	0x8d	0.030660417
239	0x97	0.049823176
240	0x74	-0.017246485
241	0x74	-0.017246485
242	0xb5	0.10731146
243	0x89	0.022995312
244	0x8a	0.024911588
245	0xa4	0.07473477
246	0x70	-0.024911588
247	0x6a	-0.036409244
248	0x7c	-0.001916276
249	0xb4	0.10539518
250	0x87	0.019162761
251	0x95	0.045990624
252	0x8e	0.03257669
253	0x83	0.011497656
254	0x6f	-0.026827864
255	0xa0	0.067069665

conv2d_2/weights_quant/FakeQuantWithMinMaxVars u1 [32, 3, 3, 32] scale=0.0017853566 zero_point=135
0	0x6f	-0.042848557
1	0x7c	-0.019638922
2	0x71	-0.039277844
3	0xaf	0.07141426
4	0x6d	-0.04641927
5	0x8e	0.012497496
6	0x81	-0.010712139
7	0x84	-0.0053560697
8	0x7a	-0.023209635
9	0x55	-0.08926783
10	0x4d	-0.10355068
11	0x64	-0.06248748
12	0x79	-0.024994992
13	0x66	-0.058916766
14	0x8c	0.008926783
15	0x79	-0.024994992
16	0xae	0.06962891
17	0x68	-0.055346053
18	0x52	-0.09462389
19	0x76	-0.030351061
20	0xb3	0.07855569
21	0xb9	0.08926783
22	0xb8	0.08748247
23	0x79	-0.024994992
24	0xb7	0.085697114
25	0x35	-0.14639923
26	0x9b	0.03570713
27	0x86	-0.0017853566
28	0x43	-0.121404245
29	0x94	0.023209635
30	0x6f	-0.042848557
31	0xaf	0.07141426
32	0x80	-0.012497496
33	0xa1	0.04641927
34	0x6c	-0.048204627
35	0x7f	-0.014282852
36	0xab	0.064272836
37	0x87	0.0
38	0x86	-0.0017853566
39	0x48	-0.11247747
40	0x94	0.023209635
41	0x76	-0.030351061
42	0x68	-0.055346053
43	0xaf	0.07141426
44	0xac	0.06605819
45	0x66	-0.058916766
46	0x8f	0.014282852
47	0xa7	0.05713141
48	0xac	0.06605819
49	0xc0	0.10176532
50	0x64	-0.06248748
51	0x88	0.0017853566
52	0xa3	0.049989983
53	0x76	-0.030351061
54	0xb4	0.08034104
55	0x7a	-0.023209635
56	0xba	0.09105319
57	0xb6	0.08391176
58	0xb6	0.08391176
59	0x98	0.030351061
60	0x8f	0.014282852
61	0x52	-0.09462389
62	0x59	-0.0821264
63	0x56	-0.08748247
64	0x6c	-0.048204627
65	0x4e	-0.10176532
66	0x9b	0.03570713
67	0x7d	-0.017853566
68	0x63	-0.064272836
69	0x7c	-0.019638922
70	0x9b	0.03570713
71	0x7c	-0.019638922
72	0x60	-0.06962891
73	0xca	0.11961889
74	0x7c	-0.019638922
75	0x7d	-0.017853566
76	0x9d	0.039277844
77	0x5a	-0.08034104
78	0x85	-0.003570713
79	0xa5	0.053560697
80	0xb6	0.08391176
81	0x6e	-0.044633914
82	0x60	-0.06962891
83	0xa7	0.05713141
84	0x82	-0.008926783
85	0x9b	0.03570713
86	0xa9	0.060702123
87	0xb0	0.073199615
88	0x5f	-0.07141426
89	0x7a	-0.023209635
90	0x80	-0.012497496
91	0x42	-0.1231896
92	0x6b	-0.049989983
93	0x8c	0.008926783
94	0x43	-0.121404245
95	0x7e	-0.016068209
96	0x70	-0.0410632
97	0x7c	-0.019638922
98	0x83	-0.007141426
99	0xa2	0.048204627
100	0x7e	-0.016068209
101	0x9a	0.033921774
102	0xb0	0.073199615
103	0x76	-0.030351061
104	0x81	-0.010712139
105	0x55	-0.08926783
106	0x72	-0.037492488
107	0x51	-0.096409254
108	0x64	-0.06248748
109	0x60	-0.06962891
110	0x73	-0.03570713
111	0xb0	0.073199615
112	0x81	-0.010712139
113	0x86	-0.0017853566
114	0x89	0.003570713
115	0x97	0.028565705
116	0x58	-0.08391176
117	0xa5	0.053560697
118	0x53	-0.09283854
119	0x52	-0.09462389
120	0x73	-0.03570713
121	0x96	0.026780348
122	0xab	0.064272836
123	0xbb	0.09283854
124	0x8e	0.012497496
125	0x50	-0.098194614
126	0x5b	-0.07855569
127	0xa5	0.053560697
128	0x80	-0.012497496
129	0x6f	-0.042848557
130	0xaf	0.07141426
131	0x75	-0.032136418
132	0x46	-0.11604817
133	0x60	-0.06962891
134	0xc2	0.10533604
135	0x65	-0.060702123
136	0x5c	-0.076770335
137	0xaf	0.07141426
138	0x95	0.024994992
139	0x75	-0.032136418
140	0x46	-0.11604817
141	0xb5	0.0821264
142	0x89	0.003570713
143	0x89	0.003570713
144	0xb8	0.08748247
145	0x95	0.024994992
146	0x9f	0.042848557
147	0x51	-0.096409254
148	0x60	-0.06962891
149	0x51	-0.096409254
150	0xba	0.09105319
151	0xbe	0.098194614
152	0x84	-0.0053560697
153	0xca	0.11961889
154	0x85	-0.003570713
155	0xa9	0.060702123
156	0xb1	0.074984975
157	0x81	-0.010712139
158	0x92	0.019638922
159	0x7c	-0.019638922
160	0x75	-0.032136418
161	0x74	-0.033921774
162	0x7b	-0.021424279
163	0x8b	0.007141426
164	0x45	-0.11783353
165	0x87	0.0
166	0x8d	0.010712139
167	0xbd	0.096409254
168	0x88	0.0017853566
169	0xce	0.12676032
170	0x76	-0.030351061
171	0x99	0.032136418
172	0x96	0.026780348
173	0x59	-0.0821264
174	0x73	-0.03570713
175	0x76	-0.030351061
176	0x8c	0.008926783
177	0x98	0.030351061
178	0x5c	-0.076770335
179	0xbc	0.09462389
180	0x7a	-0.023209635
181	0xaf	0.07141426
182	0xb5	0.0821264
183	0xb9	0.08926783
184	0x74	-0.033921774
185	0xc2	0.10533604
186	0xc5	0.110692106
187	0x50	-0.098194614
188	0xba	0.09105319
189	0xc9	0.11783353
190	0xa5	0.053560697
191	0x6a	-0.05177534
192	0x76	-0.030351061
193	0x78	-0.026780348
194	0x65	-0.060702123
195	0xaa	0.06248748
196	0x71	-0.039277844
197	0x7d	-0.017853566
198	0x7b	-0.021424279
199	0x91	0.017853566
200	0x93	0.021424279
201	0x98	0.030351061
202	0x7a	-0.023209635
203	0x6d	-0.04641927
204	0x6e	-0.044633914
205	0x4a	-0.108906746
206	0x6f	-0.042848557
207	0x59	-0.0821264
208	0x95	0.024994992
209	0x5a	-0.08034104
210	0x5d	-0.074984975
211	0xa4	0.05177534
212	0x7e	-0.016068209
213	0x59	-0.0821264
214	0x79	-0.024994992
215	0x56	-0.08748247
216	0x6a	-0.05177534
217	0x95	0.024994992
218	0x9b	0.03570713
219	0x5e	-0.073199615
220	0x56	-0.08748247
221	0x5f	-0.07141426
222	0x78	-0.026780348
223	0x63	-0.064272836
224	0x90	0.016068209
225	0x6b	-0.049989983
226	0x92	0.019638922
227	0xa9	0.060702123
228	0x7b	-0.021424279
229	0x97	0.028565705
230	0x83	-0.007141426
231	0x4c	-0.10533604
232	0x81	-0.010712139
233	0x77	-0.028565705
234	0x7c	-0.019638922
235	0x7a	-0.023209635
236	0x81	-0.010712139
237	0x5a	-0.08034104
238	0x94	0.023209635
239	0x77	-0.028565705
240	0x58	-0.08391176
241	0x7d	-0.017853566
242	0x38	-0.14104317
243	0x71	-0.039277844
244	0x40	-0.12676032
245	0x6f	-0.042848557
246	0xa5	0.053560697
247	0xc9	0.11783353
248	0x95	0.024994992
249	0xcc	0.1231896
250	0x9f	0.042848557
251	0x64	-0.06248748
252	0x5f	-0.07141426
253	0xb0	0.073199615
254	0x70	-0.0410632
255	0x9a	0.033921774

dense/weights_quant/FakeQuantWithMinMaxVars/transpose u1 [10, 1568] scale=0.0014326809 zero_point=142
0	0x5b	-0.07306673
1	0x94	0.008596085
2	0x74	-0.037249703
3	0x7f	-0.021490213
4	0x7c	-0.025788255
5	0x7e	-0.022922894
6	0x4e	-0.091691576
7	0x96	0.011461447
8	0x6f	-0.04441311
9	0x58	-0.077364765
10	0x6a	-0.05157651
11	0x84	-0.014326809
12	0x5d	-0.07020136
13	0x89	-0.0071634045
14	0xac	0.042980425
15	0x73	-0.038682383
16	0x61	-0.06447064
17	0x73	-0.038682383
18	0x83	-0.01575949
19	0x51	-0.08739353
20	0x66	-0.057307236
21	0x84	-0.014326809
22	0x60	-0.06590332
23	0x6e	-0.045845788
24	0x9e	0.022922894
25	0x6d	-0.047278468
26	0x76	-0.03438434
27	0x89	-0.0071634045
28	0x5b	-0.07306673
29	0x53	-0.08452817
30	0x67	-0.055874553
31	0x6a	-0.05157651
32	0x82	-0.01719217
33	0xa8	0.037249703
34	0x91	0.0042980425
35	0x93	0.0071634045
36	0x66	-0.057307236
37	0x96	0.011461447
38	0x68	-0.054441873
39	0x67	-0.055874553
40	0x72	-0.040115066
41	0x94	0.008596085
42	0x7b	-0.027220936
43	0x6a	-0.05157651
44	0x6d	-0.047278468
45	0x75	-0.035817023
46	0xa5	0.03295166
47	0xac	0.042980425
48	0xb3	0.053009193
49	0x8b	-0.0042980425
50	0x6b	-0.05014383
51	0x68	-0.054441873
52	0x79	-0.030086298
53	0x65	-0.058739915
54	0x61	-0.06447064
55	0x62	-0.06303796
56	0x89	-0.0071634045
57	0x8f	0.0014326809
58	0x8c	-0.0028653617
59	0x92	0.0057307235
60	0x9e	0.022922894
61	0x5c	-0.07163405
62	0x78	-0.03151898
63	0x5c	-0.07163405
64	0x61	-0.06447064
65	0x66	-0.057307236
66	0x6e	-0.045845788
67	0x5e	-0.06876868
68	0x65	-0.058739915
69	0x6f	-0.04441311
70	0x65	-0.058739915
71	0xab	0.041547745
72	0xa9	0.038682383
73	0x6b	-0.05014383
74	0x66	-0.057307236
75	0x83	-0.01575949
76	0x89	-0.0071634045
77	0x89	-0.0071634045
78	0x9f	0.024355575
79	0x73	-0.038682383
80	0xae	0.045845788
81	0xb2	0.05157651
82	0x68	-0.054441873
83	0xb6	0.057307236
84	0x6c	-0.04871115
85	0x7e	-0.022922894
86	0x92	0.0057307235
87	0x5d	-0.07020136
88	0x7c	-0.025788255
89	0x55	-0.08166281
90	0x68	-0.054441873
91	0x96	0.011461447
92	0x93	0.0071634045
93	0x7e	-0.022922894
94	0x7a	-0.028653618
95	0x76	-0.03438434
96	0xa3	0.030086298
97	0x8a	-0.0057307235
98	0x9a	0.01719217
99	0x89	-0.0071634045
100	0x67	-0.055874553
101	0xac	0.042980425
102	0x6a	-0.05157651
103	0x84	-0.014326809
104	0x9b	0.018624851
105	0x74	-0.037249703
106	0x87	-0.0100287665
107	0x7e	-0.022922894
108	0x8e	0.0
109	0x6c	-0.04871115
110	0xb7	0.058739915
111	0x80	-0.020057533
112	0x8b	-0.0042980425
113	0x4a	-0.0974223
114	0x97	0.0128941275
115	0xb8	0.060172595
116	0x5a	-0.074499406
117	0x78	-0.03151898
118	0xa5	0.03295166
119	0x7b	-0.027220936
120	0xa4	0.03151898
121	0x8a	-0.0057307235
122	0x70	-0.042980425
123	0x9b	0.018624851
124	0x7a	-0.028653618
125	0xaf	0.047278468
126	0xa8	0.037249703
127	0xa6	0.03438434
128	0xac	0.042980425
129	0x76	-0.03438434
130	0xab	0.041547745
131	0x96	0.011461447
132	0x96	0.011461447
133	0xa1	0.027220936
134	0xa5	0.03295166
135	0x9c	0.020057533
136	0x6e	-0.045845788
137	0x65	-0.058739915
138	0x4a	-0.0974223
139	0x5f	-0.067336
140	0x5b	-0.07306673
141	0x4d	-0.093124256
142	0x74	-0.037249703
143	0x98	0.014326809
144	0x6f	-0.04441311
145	0x5a	-0.074499406
146	0xab	0.041547745
147	0x90	0.0028653617
148	0x64	-0.060172595
149	0xa0	0.025788255
150	0xa6	0.03438434
151	0xa5	0.03295166
152	0x72	-0.040115066
153	0x7d	-0.024355575
154	0xac	0.042980425
155	0x85	-0.0128941275
156	0xba	0.06303796
157	0x80	-0.020057533
158	0xa3	0.030086298
159	0x9e	0.022922894
160	0x94	0.008596085
161	0x77	-0.03295166
162	0x7f	-0.021490213
163	0x7a	-0.028653618
164	0x6b	-0.05014383
165	0x7c	-0.025788255
166	0x75	-0.035817023
167	0xbd	0.067336
168	0x74	-0.037249703
169	0xa6	0.03438434
170	0x78	-0.03151898
171	0xbc	0.06590332
172	0x69	-0.053009193
173	0x51	-0.08739353
174	0xb6	0.057307236
175	0xa6	0.03438434
176	0x81	-0.018624851
177	0x4a	-0.0974223
178	0x82	-0.01719217
179	0x8b	-0.0042980425
180	0x6d	-0.047278468
181	0xa0	0.025788255
182	0x70	-0.042980425
183	0x8c	-0.0028653617
184	0x96	0.011461447
185	0x78	-0.03151898
186	0x7c	-0.025788255
187	0x90	0.0028653617
188	0x7a	-0.028653618
189	0x67	-0.055874553
190	0x60	-0.06590332
191	0x64	-0.060172595
192	0xa0	0.025788255
193	0x66	-0.057307236
194	0x7f	-0.021490213
195	0x97	0.0128941275
196	0xaa	0.040115066
197	0xcf	0.093124256
198	0x8a	-0.0057307235
199	0x96	0.011461447
200	0x7b	-0.027220936
201	0x9d	0.021490213
202	0x71	-0.041547745
203	0x99	0.01575949
204	0x8e	0.0
205	0x59	-0.075932086
206	0x96	0.011461447
207	0xbe	0.06876868
208	0x8c	-0.0028653617
209	0x5e	-0.06876868
210	0xa5	0.03295166
211	0x6c	-0.04871115
212	0xae	0.045845788
213	0x9c	0.020057533
214	0x92	0.0057307235
215	0x7e	-0.022922894
216	0xc4	0.077364765
217	0x94	0.008596085
218	0x70	-0.042980425
219	0x68	-0.054441873
220	0xa1	0.027220936
221	0x7f	-0.021490213
222	0x64	-0.060172595
223	0xb3	0.053009193
224	0x91	0.0042980425
225	0x93	0.0071634045
226	0xa6	0.03438434
227	0x8e	0.0
228	0x79	-0.030086298
229	0x8a	-0.0057307235
230	0x9d	0.021490213
231	0x65	-0.058739915
232	0x98	0.014326809
233	0x74	-0.037249703
234	0x60	-0.06590332
235	0x95	0.0100287665
236	0x8b	-0.0042980425
237	0x89	-0.0071634045
238	0x85	-0.0128941275
239	0xab	0.041547745
240	0x97	0.0128941275
241	0x6f	-0.04441311
242	0x8e	0.0
243	0xa8	0.037249703
244	0x76	-0.03438434
245	0x7b	-0.027220936
246	0x7a	-0.028653618
247	0x84	-0.014326809
248	0x70	-0.042980425
249	0xaa	0.040115066
250	0x80	-0.020057533
251	0x75	-0.035817023
252	0x9f	0.024355575
253	0x73	-0.038682383
254	0x8b	-0.0042980425
255	0x85	-0.0128941275
